model.pt (torch_old, 4840 bytes, 3 tensors)

weight f4 [200, 2]
000000 78 06 30 3f 39 ab 31 bb 2b 80 38 bf da 83 58 3b
       0.6875987 -0.0027110113 -0.7207057 0.0033037574
000010 9e 83 2e 3f a6 f0 2c bb e4 a2 2c 3f ae e3 27 bb
       0.6816958 -0.0026388555 0.6743605 -0.0025617885
000020 f7 d7 2f 3f c4 0f 31 bb 42 6e 28 3f fb 61 24 bb
       0.6868891 -0.0027017454 0.6579324 -0.0025082815
000030 cc 7b a0 bf a5 68 86 3d d3 ce c0 bf 7a 5c a7 3e
       -1.253778 0.06562928 -1.5063118 0.32687742
000040 53 d7 93 3f 8b 53 67 bd 08 73 40 bf f2 6d 96 3b
       1.1550087 -0.056476157 -0.75175524 0.004590743
000050 f6 98 bf 3f 90 47 a4 bd c6 3a 2e 3f 0f 1e 2c bb
       1.4968555 -0.08021462 0.6805843 -0.0026263034
000060 03 8f 28 3f 11 37 21 bb 67 ef 60 3f 22 1e 63 bb
       0.6584322 -0.0024599473 0.878653 -0.0034655412
000070 86 98 70 3f d4 a2 71 bb 90 26 76 3f 44 10 48 bb
       0.9398273 -0.0036870735 0.9615259 -0.0030527273
000080 13 4a 31 bf 4d 49 35 3b 7e 4c 38 bf bd 3f 57 3b
       -0.69253653 0.00276621 -0.7199172 0.0032844387
000090 76 58 bb bf 71 d3 a2 3e 8c 15 2f 3f b0 a5 2e bb
       -1.4636371 0.31801942 0.6839225 -0.002664905
0000a0 ed f9 78 3f 33 23 62 bb b4 ae 50 3f c4 38 5b 3c
       0.97256356 -0.0034505844 0.81516576 0.013380233
0000b0 3b 57 36 bf 90 0d 4c 3b f1 7c 34 3f 1e b4 43 bb
       -0.71226853 0.0031136014 0.70503145 -0.0029861997
0000c0 7f c5 d0 bf 65 6a b5 3e 71 95 cb 3f d2 31 9c bd
       -1.6310271 0.35432735 1.5904981 -0.0762669
0000d0 0b e2 34 3f e8 97 45 bb 90 70 49 3f 9a 99 fb b9
       0.70657414 -0.0030150358 0.7868738 -0.00047988893
0000e0 dc b8 2b bf 26 2f 25 3b 91 f3 3b bf 74 49 72 3b
       -0.6707895 0.0025205105 -0.7341853 0.003697005
0000f0 9c 45 a0 3f e5 46 86 bd 5f 78 6c 3f 14 1b 66 bb
       1.2521243 -0.06556491 0.9237117 -0.0035111355
000100 e0 81 69 3f 31 97 6e bb ec b1 34 3f a5 ae 44 bb
       0.912138 -0.0036406035 0.7058399 -0.0030011323
000110 b7 a0 c6 3f 32 7a a7 bd cf a8 2e bf 60 a2 2c 3b
       1.5517796 -0.08177604 -0.6822633 0.00263419
000120 60 96 3d 3f 97 24 82 bb 6b 0c c9 3f 75 e9 9f bd
       0.7405758 -0.003971647 1.5706915 -0.078082
000130 a9 7a 32 bf 0f f5 39 3b 97 61 28 3f 94 92 21 bb
       -0.69718415 0.0028374826 0.6577391 -0.0024654018
000140 17 35 d6 bf 9f cb ba 3e ce fb 6d 3f 21 dd 0c bb
       -1.6734952 0.36483476 0.9296235 -0.0021494108
000150 81 79 70 3f b4 6e 1c bb d5 0e 63 3f 47 5f 63 bb
       0.939354 -0.0023869695 0.88694507 -0.003469424
000160 af bd 2a 3f 90 c3 23 bb fd 6a 30 3f 7c fe 32 bb
       0.66695684 -0.002498839 0.6891325 -0.002731233
000170 45 40 40 3f 6c 39 95 bb 59 c6 37 bf f2 21 54 3b
       0.7509807 -0.0045539644 -0.7178703 0.0032368866
000180 c3 dc 34 3f ff 80 45 bb dd 65 2b bf 65 7e 24 3b
       0.70649356 -0.0030136702 -0.66952306 0.002509975
000190 75 ac 2d 3f 08 90 2a bb 3d 32 3c bf 52 99 74 3b
       0.67841274 -0.002602579 -0.7351416 0.0037322831
0001a0 ce b0 e0 bf 32 c5 c8 3e 38 4d 88 bf b8 30 37 3d
       -1.7553957 0.39212948 -1.0648565 0.044724196
0001b0 85 e9 33 3f 8a 05 41 bb 0e 47 6f 3f 02 eb 69 bb
       0.702782 -0.0029452764 0.93467796 -0.0035693054
0001c0 43 a9 c3 bf 5d c4 a9 3e 1b a4 31 3f e9 b4 2b bb
       -1.528603 0.33157626 0.6939103 -0.002620036
0001d0 6c 5b 2c 3f 8f 36 27 bb 17 a8 38 3f bd 99 5a bb
       0.67327 -0.0025514697 0.72131485 -0.0033355795
0001e0 04 53 48 3f 1c 62 f3 bb 27 62 29 3f 19 aa 21 bb
       0.7825167 -0.007427467 0.66165394 -0.0024668036
0001f0 36 ec 35 bf 8a dd 49 3b e8 36 30 bf 5e 7a 31 3b
       -0.71063554 0.0030802214 -0.6883378 0.0027080993
000200 00 2f 89 bf 8d 7c 3a 3d 5c ee 2a 3f 79 25 24 bb
       -1.0717468 0.045528937 0.6676996 -0.002504675
000210 38 c1 d6 bf ff 65 bb 3e 59 bc 2b 3f 39 cc 25 bb
       -1.6777716 0.36601254 0.6708427 -0.0025298728
000220 e0 5d 2b 3f 99 02 25 bb 34 58 42 3f ac da a9 bb
       0.66940117 -0.002517855 0.7591584 -0.0051835384
000230 5a a0 30 3f 40 bd 33 bb 0a 5a 5f 3f 96 35 60 bb
       0.6899468 -0.0027426034 0.87246764 -0.0034211627
000240 b3 30 3d bf 4c bc 7e 3b f7 02 2e 3f 38 7f 2b bb
       -0.73902434 0.0038869558 0.67973274 -0.0026168358
000250 b4 e9 42 bf 83 7f af 3b 54 47 2b bf 3d 41 24 3b
       -0.7613785 0.0053557768 -0.66905713 0.00250633
000260 83 5f 38 3f bc d1 58 bb 76 eb 32 3f c9 aa 2a bb
       0.7202074 -0.0033083996 0.69890535 -0.0026041737
000270 84 09 79 3f 84 8d 6e bb ef ce 70 3f 2e af 76 bb
       0.97280145 -0.0036400268 0.94065756 -0.0037641036
000280 5e 39 74 3f b5 1d 34 bb 94 f4 31 bf 75 cd 37 3b
       0.95400035 -0.0027483527 -0.6951382 0.0028046046
000290 2a 8a 2d 3f 0b 33 2a bb 80 77 77 3f 5d 3a 50 bb
       0.67788947 -0.0025970365 0.9666672 -0.0031773068
0002a0 17 c3 da bf 79 f2 bf 3e 57 e5 3b 3f 37 b4 2e bb
       -1.7090787 0.3748968 0.7339682 -0.002665771
0002b0 b7 2d 2e 3f fe f7 2b bb 21 45 e0 bf 68 d2 c7 3e
       0.68038505 -0.0026240344 -1.7521096 0.39027715
0002c0 4d d9 74 3f 31 67 78 bb 03 3d 72 3f a3 1c 79 bb
       0.95644075 -0.0037903304 0.94624346 -0.0038011454
0002d0 b1 ae 76 3f d2 d1 47 bb 1e d2 34 3f c0 4d 45 bb
       0.9636031 -0.0030490053 0.70633113 -0.0030106157
0002e0 c7 59 32 3f 2a 47 3a bb aa 3b 78 3f e2 2b 57 bb
       0.6966824 -0.0028423765 0.9696604 -0.0032832553
0002f0 ce 6b dd bf bc 66 c3 3e 4f c7 3d 3f 90 41 83 bb
       -1.7298524 0.38164318 0.74132246 -0.0040056184
000300 24 e8 66 3f fa 0e 60 bb 96 97 2f bf 14 76 2f 3b
       0.9019797 -0.0034188614 -0.68590677 0.002677326
000310 4d 05 c6 bf fd c7 ab 3e f0 c9 db bf d6 3c c1 3e
       -1.5470368 0.33551016 -1.7171001 0.37741727
000320 82 fb 8d 3f c7 f6 4e bd bd df 98 bf 71 91 77 3d
       1.1092379 -0.050528314 -1.194328 0.060441438
000330 d8 f1 ca bf 49 14 b0 3e 3e b3 e6 3b 2c 62 40 3e
       -1.5855055 0.34390476 0.0070404103 0.1878745
000340 b7 6b 2b 3f f4 23 25 bb 04 45 28 3f b8 4a 22 bb
       0.66961235 -0.0025198432 0.6573031 -0.0024763774
000350 c9 68 76 3f 53 a2 77 bb 1d ec 2e 3f 28 24 2e bb
       0.9625364 -0.0037785962 0.6832903 -0.0026571844
000360 9b 68 31 bf 7d ba 35 3b 16 b4 44 3f 67 37 37 bb
       -0.6930024 0.0027729564 0.7683729 -0.0027956606
000370 73 6b 32 3f 6a 91 3a bb a0 1b 3c 3f 56 cf d2 ba
       0.69695204 -0.0028468021 0.7347965 -0.001608352
000380 90 86 d7 bf 2e 38 bc 3e 7e c1 2d bf b5 16 2a 3b
       -1.683794 0.36761612 -0.6787337 0.0025953476
000390 19 88 cf bf dc 3f b4 3e 15 36 33 3f 2d e6 3d bb
       -1.6213409 0.3520497 0.700044 -0.0028976307
0003a0 d6 72 46 3f 10 ed da bb 1a 53 67 3f 12 a3 6b bb
       0.77518976 -0.006681092 0.9036118 -0.0035955352
0003b0 67 2d 3d 3f 0e 4c 2d bb e1 a6 29 3f 3e 01 22 bb
       0.73897403 -0.0026443037 0.6627026 -0.0024719979
0003c0 26 87 38 3f 8c c7 59 bb 4e 79 78 3f 10 71 5a bb
       0.7208122 -0.0033230511 0.97060096 -0.003333155
0003d0 ba 73 4d 3f c8 19 41 bb 9e 0e 6d 3f 3e a7 07 bb
       0.8025471 -0.002946483 0.9260043 -0.002069905
0003e0 a3 82 28 3f 27 48 21 bb 79 bc 29 3f 5e 1f 22 bb
       0.65824336 -0.0024609657 0.6630321 -0.0024737935
0003f0 0c ce 37 3f 0a db 2b bb 47 22 31 bf 22 b5 34 3b
       0.7179878 -0.0026223087 -0.6919293 0.0027573784

bias f4 [200]
000000 7e 8a d2 c0 ff fb e0 40 6c ae cf c0 72 fd cb c0
       -6.579406 7.0307612 -6.4900417 -6.374688
000010 f9 33 d2 c0 c3 e6 bf c0 f8 1b cc 40 2b 92 61 40
       -6.5688443 -5.996919 6.378414 3.5245464
000020 00 e6 d5 c0 74 06 ea 40 7b bd b6 c0 fd 21 cf c0
       -6.684326 7.3132877 -5.71063 -6.472899
000030 68 98 c2 c0 31 47 a3 c0 cf 58 ad c0 be ab b6 c0
       -6.0811043 -5.1024404 -5.417091 -5.7084646
000040 9c d2 d4 40 f5 ab e0 40 2c 05 59 40 46 c5 d0 c0
       6.650709 7.020991 3.3909407 -6.524081
000050 f5 9e b5 c0 0c 19 c7 c0 4d 89 dd 40 57 76 da c0
       -5.675654 -6.2218075 6.9230103 -6.826946
000060 aa 75 7d 40 f3 06 bb c0 5d 21 db c0 a0 f9 b9 c0
       3.9603066 -5.8445983 -6.8478227 -5.811722
000070 26 08 ca 40 98 e2 e5 40 71 bc cb c0 5b a0 ab c0
       6.3134947 7.1839104 -6.366753 -5.3633246
000080 9c 51 a8 c0 49 d0 da c0 64 e6 b6 c0 dc e6 cf 40
       -5.259962 -6.8379254 -5.715624 6.496931
000090 14 c4 e7 c0 b6 eb b6 c0 91 f3 d6 40 25 c9 c1 c0
       -7.2426853 -5.7162733 6.717232 -6.055804
0000a0 e2 23 84 40 4f 2a b8 c0 a1 f6 b7 c0 49 d8 a4 c0
       4.12938 -5.7551646 -5.748856 -5.151402
0000b0 a4 09 c8 c0 61 44 d3 c0 5e ed e9 c0 e4 d8 df 40
       -6.251177 -6.602097 -7.3102255 6.995226
0000c0 a0 18 db c0 79 58 c9 40 db 0c ce c0 74 2f e6 40
       -6.846756 6.29205 -6.4390693 7.1932926
0000d0 e8 22 90 40 b2 e9 e1 40 7b 7a d9 c0 45 4a ad c0
       4.504261 7.0597773 -6.796201 -5.415316
0000e0 4c 30 66 40 52 12 8b c0 19 6d cb c0 9b 3b e1 c0
       3.5966978 -4.3459864 -6.3570676 -7.038526
0000f0 9e f2 eb c0 e4 ee c4 c0 e8 d8 dc 40 fe d8 d2 40
       -7.3733664 -6.1541615 6.901478 6.5889883
000100 d3 f2 e0 40 31 74 c8 c0 16 c9 84 40 a4 26 ca c0
       7.0296416 -6.2641835 4.1495466 -6.317217
000110 12 61 c9 c0 51 d4 ea c0 89 a6 d3 c0 7f 76 a2 c0
       -6.2930994 -7.3384175 -6.614079 -5.076965
000120 24 55 e7 40 7d b5 ce c0 9e ff ea 40 75 17 c9 40
       7.229143 -6.4596543 7.3437033 6.2841134
000130 b7 cb e0 c0 63 f1 8b c0 a4 2b b4 c0 59 e4 ac c0
       -7.0248675 -4.373216 -5.630327 -5.4028745
000140 31 b8 b7 c0 b0 05 d6 40 99 c9 cd c0 81 a8 b6 c0
       -5.7412343 6.6881943 -6.430859 -5.7080693
000150 5f 27 89 40 cd 6e 90 c0 ae 08 cf c0 d6 7a 8f 40
       4.286056 -4.5135255 -6.4698095 4.4837446
000160 1c c7 af c0 c4 b0 ad c0 fb 19 b7 c0 75 06 db c0
       -5.4930553 -5.427828 -5.7219214 -6.844538
000170 7f c1 d6 c0 4d 63 b6 c0 e3 29 8c 40 80 f6 e7 c0
       -6.71112 -5.6996217 4.380113 -7.2488403
000180 66 2b a8 c0 17 ae d1 40 2b 1c 6a 40 fb 52 8a 40
       -5.2552977 6.552501 3.6579692 4.3226295
000190 68 e1 db c0 00 e1 d1 40 8c a1 72 40 b0 8c f4 c0
       -6.8712654 6.558716 3.79111 -7.642174
0001a0 d5 7e c9 c0 76 f3 c0 c0 41 11 b1 c0 ad 76 d0 c0
       -6.2967324 -6.0297194 -5.533356 -6.514487
0001b0 d8 09 d5 40 96 d6 94 c0 8c e0 d6 c0 fd 21 bb c0
       6.6574516 -4.6511946 -6.7149105 -5.847899
0001c0 e1 94 85 40 52 25 ce 40 c3 14 7b 40 57 44 d8 c0
       4.1744237 6.4420557 3.9231422 -6.7583423
0001d0 45 ba eb c0 48 07 a7 c0 dc 75 91 c0 c2 94 c5 c0
       -7.366488 -5.219639 -4.545637 -6.174409
0001e0 e5 08 e1 c0 2c 2c b6 c0 4f 7e 99 c0 45 2d b8 c0
       -7.0323358 -5.692892 -4.7966685 -5.755526
0001f0 06 64 c2 c0 33 c8 c5 c0 87 73 8e c0 73 8a d4 40
       -6.07471 -6.1806884 -4.4516025 6.6419005
000200 52 13 8c 40 20 47 d8 40 cc b0 81 40 80 16 d4 c0
       4.3773584 6.7586823 4.0528316 -6.6277466
000210 4b 66 c6 c0 9f 51 dc c0 02 0b c8 c0 b2 23 db 40
       -6.199987 -6.8849635 -6.2513437 6.8481073
000220 f8 19 83 40 b8 cd d7 40 9c 07 b2 c0 a0 bf d3 c0
       4.09692 6.743862 -5.563429 -6.6171417
000230 f8 6c d2 40 96 9b 88 40 67 6d e5 c0 a9 2b d5 c0
       6.575802 4.2689924 -7.169605 -6.6615796
000240 b8 b3 b0 c0 44 82 80 40 43 8a cd c0 7f 76 e3 40
       -5.5219383 4.0159016 -6.4231277 7.108215
000250 1e a0 b0 c0 12 3c 96 c0 c6 21 ca c0 66 78 d0 c0
       -5.5195456 -4.694833 -6.3166227 -6.514697
000260 2b dc 58 c0 46 f7 e8 c0 84 fc b6 c0 ff 43 87 40
       -3.388438 -7.2801847 -5.7183247 4.2270503
000270 4c 62 b6 c0 49 03 ea c0 de 11 83 40 1e 28 cf c0
       -5.699499 -7.312901 4.095931 -6.473647
000280 56 65 ea c0 f4 54 5e c0 ec c8 c8 c0 69 13 cc c0
       -7.32487 -3.4739351 -6.2745266 -6.3773694
000290 f2 24 b8 c0 60 fd b9 40 4f 8b e8 c0 8d c3 c8 c0
       -5.75451 5.8121796 -7.2670054 -6.273871
0002a0 d2 96 d8 c0 24 df d9 c0 74 b8 a2 c0 c9 99 d2 c0
       -6.7684107 -6.808489 -5.0850163 -6.5812726
0002b0 48 1e e6 c0 b9 9d c3 c0 01 90 ad c0 da b6 a3 c0
       -7.1911964 -6.1130033 -5.4238286 -5.1160707
0002c0 9d fc d6 c0 36 24 c2 c0 84 59 bc c0 26 ce 88 40
       -6.7183366 -6.0669203 -5.885927 4.2751646
0002d0 2f de dd 40 79 ff 79 40 4c ba b9 c0 48 df 94 c0
       6.933372 3.9062178 -5.8039913 -4.652256
0002e0 18 f6 d2 40 f1 65 f5 c0 dc 28 e0 40 2f 9a e1 40
       6.5925407 -7.668694 7.0049877 7.0500712
0002f0 5b 71 d5 c0 03 08 d6 c0 03 eb b6 c0 f1 93 b8 c0
       -6.6700873 -6.688478 -5.716188 -5.7680593
000300 90 c2 b7 c0 32 b7 d4 c0 a8 2a c1 c0 a4 40 af c0
       -5.7425003 -6.6473627 -6.036457 -5.4766407
000310 0e da cd 40 48 b5 8c 40 9b 5d a3 c0 2f fd 84 40
       6.432868 4.397129 -5.1051764 4.155906

weight f4 [1, 200]
000000 8d 79 5a 41 71 be 18 c1 e5 74 59 41 8e f6 59 41
       13.6546755 -9.5464945 13.591039 13.622694
000010 b3 c9 5a 41 46 9d 57 41 cd ed 14 c1 8c 6b 2f 41
       13.674243 13.475897 -9.308057 10.963757
000020 56 64 6c 41 4a 74 15 c1 7e f7 70 41 bf 1a 59 41
       14.774496 -9.340891 15.060423 13.56903
000030 62 d2 55 41 b2 28 53 41 10 f6 4f 41 ff 24 4e 41
       13.363863 13.197435 12.997574 12.884032
000040 7c 80 16 c1 9d ad 1a c1 84 e4 2c 41 a1 bd 5a 41
       -9.406368 -9.667386 10.80579 13.671296
000050 e0 0c 52 41 29 a7 56 41 64 e8 16 c1 50 03 5d 41
       13.128143 13.415811 -9.431736 13.813309
000060 62 58 33 41 aa a6 6f 41 c3 51 5f 41 36 f9 56 41
       11.209078 14.978189 13.957461 13.4358425
000070 fc 07 11 c1 51 1a 17 c1 b9 40 6f 41 0e 14 4b 41
       -9.064449 -9.443925 14.953301 12.692396
000080 48 dd 4c 41 b3 5e 5e 41 34 bd 70 41 e5 e0 14 c1
       12.804024 13.89812 15.046192 -9.304906
000090 c3 9e 62 41 70 56 6f 41 d1 e0 0e c1 88 dc 5b 41
       14.16376 14.958603 -8.929887 13.741341
0000a0 9f 8b 30 41 34 64 58 41 0f 5a 51 41 f4 07 50 41
       11.034087 13.524464 13.084487 13.001942
0000b0 5a ed 5d 41 81 ce 5c 41 ce 57 63 41 e4 ad 14 c1
       13.870447 13.800416 14.208937 -9.292454
0000c0 53 69 5d 41 ad cd 16 c1 5d 28 5a 41 5a 2c 15 c1
       13.838214 -9.425214 13.634854 -9.323328
0000d0 ee 1c 35 41 f9 b0 17 c1 7a 03 5d 41 01 91 4a 41
       11.319563 -9.480706 13.813349 12.660401
0000e0 cb e8 2d 41 8d 1e 50 41 86 be 5a 41 5c cb 60 41
       10.869334 13.007459 13.6715145 14.049648
0000f0 13 97 64 41 cd d5 55 41 c5 6c 14 c1 16 ba 1b c1
       14.286883 13.364697 -9.276555 -9.732931
000100 bd 57 17 c1 cb ac 58 41 48 44 34 41 1f a2 5a 41
       -9.4589205 13.542186 11.26667 13.66458
000110 46 0d 5b 41 e2 56 65 41 9b c1 5a 41 ac fb 4a 41
       13.690741 14.333712 13.672267 12.686443
000120 2f ac 14 c1 8e 2a 5a 41 89 f1 17 c1 2e e8 16 c1
       -9.292037 13.635389 -9.496469 -9.4316845
000130 e0 14 60 41 dd 52 4f 41 7b f0 55 41 0c 66 50 41
       14.005096 12.95773 13.371211 13.024914
000140 2d 6b 52 41 71 58 1a c1 14 a4 5a 41 57 22 4d 41
       13.151166 -9.646592 13.665058 12.820884
000150 e1 32 35 41 64 06 4d 41 3c b0 59 41 a1 0a 31 41
       11.324922 12.81406 13.605526 11.065095
000160 5a 27 52 41 f7 bd 54 41 b4 6b 51 41 47 91 5d 41
       13.134607 13.296378 13.088795 13.847968
000170 b3 a9 5d 41 d4 30 52 41 0f f7 31 41 3b 0f 62 41
       13.85393 13.136921 11.122817 14.128718
000180 0f b4 4b 41 2d 29 19 c1 65 8c 2e 41 8d 92 33 41
       12.73146 -9.572553 10.909276 11.223279
000190 7a 60 6a 41 f9 b2 15 c1 e5 60 2e 41 24 dd 23 41
       14.648554 -9.3561945 10.898656 10.241489
0001a0 dd 3e 57 41 65 99 57 41 1b c7 4f 41 ec 75 5b 41
       13.4528475 13.47495 12.98611 13.7162895
0001b0 a6 3e 17 c1 03 85 51 41 79 e0 5c 41 d1 67 50 41
       -9.452795 13.094974 13.804803 13.025346
0001c0 b9 77 30 41 eb d6 14 c1 f3 b2 34 41 59 30 5d 41
       11.029229 -9.30247 11.293689 13.824304
0001d0 ab d9 64 41 5b 51 52 41 4d 38 50 41 27 5f 57 41
       14.303142 13.144862 13.013745 13.460731
0001e0 d7 3c 61 41 07 0a 51 41 f7 32 51 41 09 cd 56 41
       14.0773535 13.064948 13.074943 13.425057
0001f0 11 51 59 41 8f d6 56 41 c8 b5 4b 41 15 da 17 c1
       13.582292 13.427382 12.73188 -9.490743
000200 b1 8f 32 41 96 f1 1a c1 90 c7 30 41 cc f4 5c 41
       11.160081 -9.683981 11.048721 13.809765
000210 fa c0 5b 41 29 df 5e 41 2a 22 6e 41 70 1e 16 c1
       13.734613 13.929482 14.883341 -9.382431
000220 a1 28 31 41 98 f8 1c c1 d3 2a 54 41 cf 27 5b 41
       11.072419 -9.810692 13.260455 13.697219
000230 f0 f4 18 c1 73 b6 31 41 b8 f4 62 41 7f 2b 5c 41
       -9.559799 11.107043 14.184746 13.760619
000240 68 fa 4d 41 5c d1 31 41 aa a2 5a 41 bf bd 19 c1
       12.873634 11.113613 13.664713 -9.608825
000250 08 3b 54 41 0a 1c 4d 41 3b 95 57 41 1e 8a 5a 41
       13.264412 12.819345 13.473933 13.65872
000260 78 1e 47 41 dd 0d 67 41 45 94 4f 41 90 b7 35 41
       12.444939 14.440885 12.973699 11.357315
000270 81 af 52 41 a8 c2 66 41 e2 5d 34 41 6f 4f 59 41
       13.167848 14.4225235 11.272921 13.581893
000280 7f 6d 64 41 ce 00 22 41 5a e1 6d 41 f1 df 59 41
       14.276732 10.125196 14.867517 13.617173
000290 38 e6 54 41 c4 a6 19 c1 a5 1c 63 41 bc 10 23 41
       13.306206 -9.603214 14.194493 10.191586
0002a0 ba ad 5c 41 f5 98 5d 41 6b d2 4e 41 aa 66 5a 41
       13.792414 13.849843 12.926372 13.650064
0002b0 f0 a2 23 41 a8 0c 70 41 1c dc 4b 41 b3 3d 48 41
       10.22728 15.00309 12.741238 12.515063
0002c0 16 31 5e 41 0c fa 6e 41 aa e7 51 41 a2 bf 30 41
       13.886984 14.936047 13.119059 11.046785
0002d0 85 8b 1c c1 0f df 30 41 e4 88 70 41 5b ec 50 41
       -9.784062 11.054458 15.033421 13.057704
0002e0 51 e1 13 c1 70 2b 23 41 be 0a 17 c1 bb 7f 16 c1
       -9.242509 10.198105 -9.440123 -9.406184
0002f0 02 94 5c 41 7d e9 5c 41 09 e6 50 41 a3 d6 70 41
       13.786135 13.807004 13.056161 15.052402
000300 75 7b 71 41 ca 94 5c 41 c0 91 53 41 fa 44 50 41
       15.092641 13.786325 13.2230835 13.01684
000310 64 8e 1a c1 88 19 31 41 5b 07 4c 41 9f 2b 31 41
       -9.659763 11.068733 12.751796 11.07315
